…
      "checkpoint: 100%|██████████| 77.0/77.0 [00:00<00:00, 125kiB/s]\n",
      "encoder.json: 100%|██████████| 1.04M/1.04M [00:00<00:00, 2.06MiB/s]\n",
      "hparams.json: 100%|██████████| 91.0/91.0 [00:00<00:00, 189kiB/s]\n",
      "model.ckpt.data-00000-of-00001: 100%|██████████| 1.42G/1.42G [02:06<00:00, 11.2MiB/s]\n",
      "model.ckpt.index: 100%|██████████| 10.4k/10.4k [00:00<00:00, 14.2MiB/s]\n",
      "model.ckpt.meta: 100%|██████████| 927k/927k [00:00<00:00, 1.86MiB/s]\n",
      "vocab.bpe: 100%|██████████| 456k/456k [00:00<00:00, 1.37MiB/s]\n"
     ]
    },
    {
     "data": {
      "text/plain": [
       "GPTModel(\n",
       "  (tok_emb): Embedding(50257, 1024)\n",
       "  (pos_emb): Embedding(1024, 1024)\n",
       "  (drop_emb): Dropout(p=0.0, inplace=False)\n",
       "  (trf_blocks): Sequential(\n",
       "    (0): TransformerBlock(\n",
       "      (att): MultiHeadAttention(\n",
       "        (W_query): Linear(in_features=1024, out_features=1024, bias=True)\n",
       "        (W_key): Linear(in_features=1024, out_features=1024, bias=True)\n",
       "        (W_value): Linear(in_features=1024, out_features=1024, bias=True)\n",
       "        (out_proj): Linear(in_features=1024, out_features=1024, bias=True)\n",
       "        (dropout): Dropout(p=0.0, inplace=False)\n",
       "      )\n",
       "      (ff): FeedForward(\n",
       "        (layers): Sequential(\n",
       "          (0): Linear(in_features=1024, out_features=4096, bias=True)\n",
       "          (1): GELU()\n",
       "          (2): Linear(in_features=4096, out_features=1024, bias=True)\n",
       "        )\n",
       "      )\n",
       "      (norm1): LayerNorm()\n",
       "      (norm2): LayerNorm()\n",
       "      (drop_shortcut): Dropout(p=0.0, inplace=False)\n",
       "    )\n",
       "    (1): TransformerBlock(\n",
       "      (att): MultiHeadAttention(\n",
       "        (W_query): Linear(in_features=1024, out_features=1024, bias=True)\n",
       "        (W_key): Linear(in_features=1024, out_features=1024, bias=True)\n",
       "        (W_value): Linear(in_features=1024, out_features=1024, bias=True)\n",
       "        (out_proj): Linear(in_features=1024, out_features=1024, bias=True)\n",
       "        (dropout): Dropout(p=0.0, inplace=False)\n",
       "      )\n",
       "      (ff): FeedForward(\n",
       "        (layers): Sequential(\n",
       "          (0): Linear(in_features=1024, out_features=4096, bias=True)\n",
       "          (1): GELU()\n",
       "          (2): Linear(in_features=4096, out_features=1024, bias=True)\n",
       "        )\n",
       "      )\n",
       "      (norm1): LayerNorm()\n",
       "      (norm2): LayerNorm()\n",
       "      (drop_shortcut): Dropout(p=0.0, inplace=False)\n",
       "    )\n",
       "    (2): TransformerBlock(\n",
       "      (att): MultiHeadAttention(\n",
       "        (W_query): Linear(in_features=1024, out_features=1024, bias=True)\n",
       "        (W_key): Linear(in_features=1024, out_features=1024, bias=True)\n",
       "        (W_value): Linear(in_features=1024, out_features=1024, bias=True)\n",
       "        (out_proj): Linear(in_features=1024, out_features=1024, bias=True)\n",
       "        (dropout): Dropout(p=0.0, inplace=False)\n",
       "      )\n",
       "      (ff): FeedForward(\n",
       "        (layers): Sequential(\n",
       "          (0): Linear(in_features=1024, out_features=4096, bias=True)\n",
       "          (1): GELU()\n",
       "          (2): Linear(in_features=4096, out_features=1024, bias=True)\n",
       "        )\n",
       "      )\n",
       "      (norm1): LayerNorm()\n",
       "      (norm2): LayerNorm()\n",
       "      (drop_shortcut): Dropout(p=0.0, inplace=False)\n",
       "    )\n",
       "    (3): TransformerBlock(\n",
       "      (att): MultiHeadAttention(\n",
       "        (W_query): Linear(in_features=1024, out_features=1024, bias=True)\n",
       "        (W_key): Linear(in_features=1024, out_features=1024, bias=True)\n",
       "        (W_value): Linear(in_features=1024, out_features=1024, bias=True)\n",
       "        (out_proj): Linear(in_features=1024, out_features=1024, bias=True)\n",
       "        (dropout): Dropout(p=0.0, inplace=False)\n",
       "      )\n",
       "      (ff): FeedForward(\n",
       "        (layers): Sequential(\n",
       "          (0): Linear(in_features=1024, out_features=4096, bias=True)\n",
       "          (1): GELU()\n",
       "          (2): Linear(in_features=4096, out_features=1024, bias=True)\n",
       "        )\n",
       "      )\n",
       "      (norm1): LayerNorm()\n",
       "      (norm2): LayerNorm()\n",
       "      (drop_shortcut): Dropout(p=0.0, inplace=False)\n",
       "    )\n",
       "    (4): TransformerBlock(\n",
       "      (att): MultiHeadAttention(\n",
       "        (W_query): Linear(in_features=1024, out_features=1024, bias=True)\n",
       "        (W_key): Linear(in_features=1024, out_features=1024, bias=True)\n",
       "        (W_value): Linear(in_features=1024, out_features=1024, bias=True)\n",
       "        (out_proj): Linear(in_features=1024, out_features=1024, bias=True)\n",
       "        (dropout): Dropout(p=0.0, inplace=False)\n",
       "      )\n",
       "      (ff): FeedForward(\n",
       "        (layers): Sequential(\n",
       "          (0): Linear(in_features=1024, out_features=4096, bias=True)\n",
       "          (1): GELU()\n",
       "          (2): Linear(in_features=4096, out_features=1024, bias=True)\n",
       "        )\n",
       "      )\n",
       "      (norm1): LayerNorm()\n",
       "      (norm2): LayerNorm()\n",
       "      (drop_shortcut): Dropout(p=0.0, inplace=False)\n",
       "    )\n",
       "    (5): TransformerBlock(\n",
       "      (att): MultiHeadAttention(\n",
       "        (W_query): Linear(in_features=1024, out_features=1024, bias=True)\n",
       "        (W_key): Linear(in_features=1024, out_features=1024, bias=True)\n",
       "        (W_value): Linear(in_features=1024, out_features=1024, bias=True)\n",
       "        (out_proj): Linear(in_features=1024, out_features=1024, bias=True)\n",
       "        (dropout): Dropout(p=0.0, inplace=False)\n",
       "      )\n",
       "      (ff): FeedForward(\n",
       "        (layers): Sequential(\n",
       "          (0): Linear(in_features=1024, out_features=4096, bias=True)\n",
       "          (1): GELU()\n",
       "          (2): Linear(in_features=4096, out_features=1024, bias=True)\n",
       "        )\n",
       "      )\n",
       "      (norm1): LayerNorm()\n",
       "      (norm2): LayerNorm()\n",
       "      (drop_shortcut): Dropout(p=0.0, inplace=False)\n",
       "    )\n",
       "    (6): TransformerBlock(\n",
       "      (att): MultiHeadAttention(\n",
       "        (W_query): Linear(in_features=1024, out_features=1024, bias=True)\n",
       "        (W_key): Linear(in_features=1024, out_features=1024, bias=True)\n",
       "        (W_value): Linear(in_features=1024, out_features=1024, bias=True)\n",
       "        (out_proj): Linear(in_features=1024, out_features=1024, bias=True)\n",
       "        (dropout): Dropout(p=0.0, inplace=False)\n",
       "      )\n",
       "      (ff): FeedForward(\n",
       "        (layers): Sequential(\n",
       "          (0): Linear(in_features=1024, out_features=4096, bias=True)\n",
       "          (1): GELU()\n",
       "          (2): Linear(in_features=4096, out_features=1024, bias=True)\n",
       "        )\n",
       "      )\n",
       "      (norm1): LayerNorm()\n",
       "      (norm2): LayerNorm()\n",
       "      (drop_shortcut): Dropout(p=0.0, inplace=False)\n",
       "    )\n",
       "    (7): TransformerBlock(\n",
       "      (att): MultiHeadAttention(\n",
       "        (W_query): Linear(in_features=1024, out_features=1024, bias=True)\n",
       "        (W_key): Linear(in_features=1024, out_features=1024, bias=True)\n",
       "        (W_value): Linear(in_features=1024, out_features=1024, bias=True)\n",
       "        (out_proj): Linear(in_features=1024, out_features=1024, bias=True)\n",
       "        (dropout): Dropout(p=0.0, inplace=False)\n",
       "      )\n",
       "      (ff): FeedForward(\n",
       "        (layers): Sequential(\n",
       "          (0): Linear(in_features=1024, out_features=4096, bias=True)\n",
       "          (1): GELU()\n",
       "          (2): Linear(in_features=4096, out_features=1024, bias=True)\n",
       "        )\n",
       "      )\n",
       "      (norm1): LayerNorm()\n",
       "      (norm2): LayerNorm()\n",
       "      (drop_shortcut): Dropout(p=0.0, inplace=False)\n",
       "    )\n",
       "    (8): TransformerBlock(\n",
       "      (att): MultiHeadAttention(\n",
       "        (W_query): Linear(in_features=1024, out_features=1024, bias=True)\n",
       "        (W_key): Linear(in_features=1024, out_features=1024, bias=True)\n",
       "        (W_value): Linear(in_features=1024, out_features=1024, bias=True)\n",
       "        (out_proj): Linear(in_features=1024, out_features=1024, bias=True)\n",
       "        (dropout): Dropout(p=0.0, inplace=False)\n",
       "      )\n",
       "      (ff): FeedForward(\n",
       "        (layers): Sequential(\n",
       "          (0): Linear(in_features=1024, out_features=4096, bias=True)\n",
       "          (1): GELU()\n",
       "          (2): Linear(in_features=4096, out_features=1024, bias=True)\n",
       "        )\n",
       "      )\n",
       "      (norm1): LayerNorm()\n",
       "      (norm2): LayerNorm()\n",
       "      (drop_shortcut): Dropout(p=0.0, inplace=False)\n",
       "    )\n",
       "    (9): TransformerBlock(\n",
       "      (att): MultiHeadAttention(\n",
       "        (W_query): Linear(in_features=1024, out_features=1024, bias=True)\n",
       "        (W_key): Linear(in_features=1024, out_features=1024, bias=True)\n",
       "        (W_value): Linear(in_features=1024, out_features=1024, bias=True)\n",
       "        (out_proj): Linear(in_features=1024, out_features=1024, bias=True)\n",
       "        (dropout): Dropout(p=0.0, inplace=False)\n",
       "      )\n",
       "      (ff): FeedForward(\n",
       "        (layers): Sequential(\n",
       "          (0): Linear(in_features=1024, out_features=4096, bias=True)\n",
       "          (1): GELU()\n",
       "          (2): Linear(in_features=4096, out_features=1024, bias=True)\n",
       "        )\n",
       "      )\n",
       "      (norm1): LayerNorm()\n",
       "      (norm2): LayerNorm()\n",
       "      (drop_shortcut): Dropout(p=0.0, inplace=False)\n",
       "    )\n",
       "    (10): TransformerBlock(\n",
       "      (att): MultiHeadAttention(\n",
       "        (W_query): Linear(in_features=1024, out_features=1024, bias=True)\n",
       "        (W_key): Linear(in_features=1024, out_features=1024, bias=True)\n",
       "        (W_value): Linear(in_features=1024, out_features=1024, bias=True)\n",
       "        (out_proj): Linear(in_features=1024, out_features=1024, bias=True)\n",
       "        (dropout): Dropout(p=0.0, inplace=False)\n",
       "      )\n",
       "      (ff): FeedForward(\n",
       "        (layers): Sequential(\n",
       "          (0): Linear(in_features=1024, out_features=4096, bias=True)\n",
       "          (1): GELU()\n",
       "          (2): Linear(in_features=4096, out_features=1024, bias=True)\n",
       "        )\n",
       "      )\n",
       "      (norm1): LayerNorm()\n",
       "      (norm2): LayerNorm()\n",
       "      (drop_shortcut): Dropout(p=0.0, inplace=False)\n",
       "    )\n",
       "    (11): TransformerBlock(\n",
       "      (att): MultiHeadAttention(\n",
       "        (W_query): Linear(in_features=1024, out_features=1024, bias=True)\n",
       "        (W_key): Linear(in_features=1024, out_features=1024, bias=True)\n",
       "        (W_value): Linear(in_features=1024, out_features=1024, bias=True)\n",
       "        (out_proj): Linear(in_features=1024, out_features=1024, bias=True)\n",
       "        (dropout): Dropout(p=0.0, inplace=False)\n",
       "      )\n",
       "      (ff): FeedForward(\n",
       "        (layers): Sequential(\n",
       "          (0): Linear(in_features=1024, out_features=4096, bias=True)\n",
       "          (1): GELU()\n",
       "          (2): Linear(in_features=4096, out_features=1024, bias=True)\n",
       "        )\n",
       "      )\n",
       "      (norm1): LayerNorm()\n",
       "      (norm2): LayerNorm()\n",
       "      (drop_shortcut): Dropout(p=0.0, inplace=False)\n",
       "    )\n",
       "    (12): TransformerBlock(\n",
       "      (att): MultiHeadAttention(\n",
       "        (W_query): Linear(in_features=1024, out_features=1024, bias=True)\n",
       "        (W_key): Linear(in_features=1024, out_features=1024, bias=True)\n",
       "        (W_value): Linear(in_features=1024, out_features=1024, bias=True)\n",
       "        (out_proj): Linear(in_features=1024, out_features=1024, bias=True)\n",
       "        (dropout): Dropout(p=0.0, inplace=False)\n",
       "      )\n",
       "      (ff): FeedForward(\n",
       "        (layers): Sequential(\n",
       "          (0): Linear(in_features=1024, out_features=4096, bias=True)\n",
       "          (1): GELU()\n",
       "          (2): Linear(in_features=4096, out_features=1024, bias=True)\n",
       "        )\n",
       "      )\n",
       "      (norm1): LayerNorm()\n",
       "      (norm2): LayerNorm()\n",
       "      (drop_shortcut): Dropout(p=0.0, inplace=False)\n",
       "    )\n",
       "    (13): TransformerBlock(\n",
       "      (att): MultiHeadAttention(\n",
       "        (W_query): Linear(in_features=1024, out_features=1024, bias=True)\n",
       "        (W_key): Linear(in_features=1024, out_features=1024, bias=True)\n",
       "        (W_value): Linear(in_features=1024, out_features=1024, bias=True)\n",
       "        (out_proj): Linear(in_features=1024, out_features=1024, bias=True)\n",
       "        (dropout): Dropout(p=0.0, inplace=False)\n",
       "      )\n",
       "      (ff): FeedForward(\n",
       "        (layers): Sequential(\n",
       "          (0): Linear(in_features=1024, out_features=4096, bias=True)\n",
       "          (1): GELU()\n",
       "          (2): Linear(in_features=4096, out_features=1024, bias=True)\n",
       "        )\n",
       "      )\n",
       "      (norm1): LayerNorm()\n",
       "      (norm2): LayerNorm()\n",
       "      (drop_shortcut): Dropout(p=0.0, inplace=False)\n",
       "    )\n",
       "    (14): TransformerBlock(\n",
       "      (att): MultiHeadAttention(\n",
       "        (W_query): Linear(in_features=1024, out_features=1024, bias=True)\n",
       "        (W_key): Linear(in_features=1024, out_features=1024, bias=True)\n",
       "        (W_value): Linear(in_features=1024, out_features=1024, bias=True)\n",
       "        (out_proj): Linear(in_features=1024, out_features=1024, bias=True)\n",
       "        (dropout): Dropout(p=0.0, inplace=False)\n",
       "      )\n",
       "      (ff): FeedForward(\n",
       "        (layers): Sequential(\n",
       "          (0): Linear(in_features=1024, out_features=4096, bias=True)\n",
       "          (1): GELU()\n",
       "          (2): Linear(in_features=4096, out_features=1024, bias=True)\n",
       "        )\n",
       "      )\n",
       "      (norm1): LayerNorm()\n",
       "      (norm2): LayerNorm()\n",
       "      (drop_shortcut): Dropout(p=0.0, inplace=False)\n",
       "    )\n",
       "    (15): TransformerBlock(\n",
       "      (att): MultiHeadAttention(\n",
       "        (W_query): Linear(in_features=1024, out_features=1024, bias=True)\n",
       "        (W_key): Linear(in_features=1024, out_features=1024, bias=True)\n",
       "        (W_value): Linear(in_features=1024, out_features=1024, bias=True)\n",
       "        (out_proj): Linear(in_features=1024, out_features=1024, bias=True)\n",
       "        (dropout): Dropout(p=0.0, inplace=False)\n",
       "      )\n",
       "      (ff): FeedForward(\n",
       "        (layers): Sequential(\n",
       "          (0): Linear(in_features=1024, out_features=4096, bias=True)\n",
       "          (1): GELU()\n",
       "          (2): Linear(in_features=4096, out_features=1024, bias=True)\n",
       "        )\n",
       "      )\n",
       "      (norm1): LayerNorm()\n",
       "      (norm2): LayerNorm()\n",
       "      (drop_shortcut): Dropout(p=0.0, inplace=False)\n",
       "    )\n",
       "    (16): TransformerBlock(\n",
       "      (att): MultiHeadAttention(\n",
       "        (W_query): Linear(in_features=1024, out_features=1024, bias=True)\n",
       "        (W_key): Linear(in_features=1024, out_features=1024, bias=True)\n",
       "        (W_value): Linear(in_features=1024, out_features=1024, bias=True)\n",
       "        (out_proj): Linear(in_features=1024, out_features=1024, bias=True)\n",
       "        (dropout): Dropout(p=0.0, inplace=False)\n",
       "      )\n",
       "      (ff): FeedForward(\n",
       "        (layers): Sequential(\n",
       "          (0): Linear(in_features=1024, out_features=4096, bias=True)\n",
       "          (1): GELU()\n",
       "          (2): Linear(in_features=4096, out_features=1024, bias=True)\n",
       "        )\n",
       "      )\n",
       "      (norm1): LayerNorm()\n",
       "      (norm2): LayerNorm()\n",
       "      (drop_shortcut): Dropout(p=0.0, inplace=False)\n",
       "    )\n",
       "    (17): TransformerBlock(\n",
       "      (att): MultiHeadAttention(\n",
       "        (W_query): Linear(in_features=1024, out_features=1024, bias=True)\n",
       "        (W_key): Linear(in_features=1024, out_features=1024, bias=True)\n",
       "        (W_value): Linear(in_features=1024, out_features=1024, bias=True)\n",
       "        (out_proj): Linear(in_features=1024, out_features=1024, bias=True)\n",
       "        (dropout): Dropout(p=0.0, inplace=False)\n",
       "      )\n",
       "      (ff): FeedForward(\n",
       "        (layers): Sequential(\n",
       "          (0): Linear(in_features=1024, out_features=4096, bias=True)\n",
       "          (1): GELU()\n",
       "          (2): Linear(in_features=4096, out_features=1024, bias=True)\n",
       "        )\n",
       "      )\n",
       "      (norm1): LayerNorm()\n",
       "      (norm2): LayerNorm()\n",
       "      (drop_shortcut): Dropout(p=0.0, inplace=False)\n",
       "    )\n",
       "    (18): TransformerBlock(\n",
       "      (att): MultiHeadAttention(\n",
       "        (W_query): Linear(in_features=1024, out_features=1024, bias=True)\n",
       "        (W_key): Linear(in_features=1024, out_features=1024, bias=True)\n",
       "        (W_value): Linear(in_features=1024, out_features=1024, bias=True)\n",
       "        (out_proj): Linear(in_features=1024, out_features=1024, bias=True)\n",
       "        (dropout): Dropout(p=0.0, inplace=False)\n",
       "      )\n",
       "      (ff): FeedForward(\n",
       "        (layers): Sequential(\n",
       "          (0): Linear(in_features=1024, out_features=4096, bias=True)\n",
       "          (1): GELU()\n",
       "          (2): Linear(in_features=4096, out_features=1024, bias=True)\n",
       "        )\n",
       "      )\n",
       "      (norm1): LayerNorm()\n",
       "      (norm2): LayerNorm()\n",
       "      (drop_shortcut): Dropout(p=0.0, inplace=False)\n",
       "    )\n",
       "    (19): TransformerBlock(\n",
       "      (att): MultiHeadAttention(\n",
       "        (W_query): Linear(in_features=1024, out_features=1024, bias=True)\n",
       "        (W_key): Linear(in_features=1024, out_features=1024, bias=True)\n",
       "        (W_value): Linear(in_features=1024, out_features=1024, bias=True)\n",
       "        (out_proj): Linear(in_features=1024, out_features=1024, bias=True)\n",
       "        (dropout): Dropout(p=0.0, inplace=False)\n",
       "      )\n",
       "      (ff): FeedForward(\n",
       "        (layers): Sequential(\n",
       "          (0): Linear(in_features=1024, out_features=4096, bias=True)\n",
       "          (1): GELU()\n",
       "          (2): Linear(in_features=4096, out_features=1024, bias=True)\n",
       "        )\n",
       "      )\n",
       "      (norm1): LayerNorm()\n",
       "      (norm2): LayerNorm()\n",
       "      (drop_shortcut): Dropout(p=0.0, inplace=False)\n",
       "    )\n",
       "    (20): TransformerBlock(\n",
       "      (att): MultiHeadAttention(\n",
       "        (W_query): Linear(in_features=1024, out_features=1024, bias=True)\n",
       "        (W_key): Linear(in_features=1024, out_features=1024, bias=True)\n",
       "        (W_value): Linear(in_features=1024, out_features=1024, bias=True)\n",
       "        (out_proj): Linear(in_features=1024, out_features=1024, bias=True)\n",
       "        (dropout): Dropout(p=0.0, inplace=False)\n",
       "      )\n",
       "      (ff): FeedForward(\n",
       "        (layers): Sequential(\n",
       "          (0): Linear(in_features=1024, out_features=4096, bias=True)\n",
       "          (1): GELU()\n",
       "          (2): Linear(in_features=4096, out_features=1024, bias=True)\n",
       "        )\n",
       "      )\n",
       "      (norm1): LayerNorm()\n",
       "      (norm2): LayerNorm()\n",
       "      (drop_shortcut): Dropout(p=0.0, inplace=False)\n",
       "    )\n",
       "    (21): TransformerBlock(\n",
       "      (att): MultiHeadAttention(\n",
       "        (W_query): Linear(in_features=1024, out_features=1024, bias=True)\n",
       "        (W_key): Linear(in_features=1024, out_features=1024, bias=True)\n",
       "        (W_value): Linear(in_features=1024, out_features=1024, bias=True)\n",
       "        (out_proj): Linear(in_features=1024, out_features=1024, bias=True)\n",
       "        (dropout): Dropout(p=0.0, inplace=False)\n",
       "      )\n",
       "      (ff): FeedForward(\n",
       "        (layers): Sequential(\n",
       "          (0): Linear(in_features=1024, out_features=4096, bias=True)\n",
       "          (1): GELU()\n",
       "          (2): Linear(in_features=4096, out_features=1024, bias=True)\n",
       "        )\n",
       "      )\n",
       "      (norm1): LayerNorm()\n",
       "      (norm2): LayerNorm()\n",
       "      (drop_shortcut): Dropout(p=0.0, inplace=False)\n",
       "    )\n",
       "    (22): TransformerBlock(\n",
       "      (att): MultiHeadAttention(\n",
       "        (W_query): Linear(in_features=1024, out_features=1024, bias=True)\n",
       "        (W_key): Linear(in_features=1024, out_features=1024, bias=True)\n",
       "        (W_value): Linear(in_features=1024, out_features=1024, bias=True)\n",
       "        (out_proj): Linear(in_features=1024, out_features=1024, bias=True)\n",
       "        (dropout): Dropout(p=0.0, inplace=False)\n",
       "      )\n",
       "      (ff): FeedForward(\n",
       "        (layers): Sequential(\n",
       "          (0): Linear(in_features=1024, out_features=4096, bias=True)\n",
       "          (1): GELU()\n",
       "          (2): Linear(in_features=4096, out_features=1024, bias=True)\n",
       "        )\n",
       "      )\n",
       "      (norm1): LayerNorm()\n",
       "      (norm2): LayerNorm()\n",
       "      (drop_shortcut): Dropout(p=0.0, inplace=False)\n",
       "    )\n",
       "    (23): TransformerBlock(\n",
       "      (att): MultiHeadAttention(\n",
       "        (W_query): Linear(in_features=1024, out_features=1024, bias=True)\n",
       "        (W_key): Linear(in_features=1024, out_features=1024, bias=True)\n",
       "        (W_value): Linear(in_features=1024, out_features=1024, bias=True)\n",
       "        (out_proj): Linear(in_features=1024, out_features=1024, bias=True)\n",
       "        (dropout): Dropout(p=0.0, inplace=False)\n",
       "      )\n",
       "      (ff): FeedForward(\n",
       "        (layers): Sequential(\n",
       "          (0): Linear(in_features=1024, out_features=4096, bias=True)\n",
       "          (1): GELU()\n",
       "          (2): Linear(in_features=4096, out_features=1024, bias=True)\n",
       "        )\n",
       "      )\n",
       "      (norm1): LayerNorm()\n",
       "      (norm2): LayerNorm()\n",
       "      (drop_shortcut): Dropout(p=0.0, inplace=False)\n",
       "    )\n",
       "  )\n",
       "  (final_norm): LayerNorm()\n",
       "  (out_head): Linear(in_features=1024, out_features=50257, bias=False)\n",
       ")"
      ]
     },
     "execution_count": 19,
     "metadata": {},
     "output_type": "execute_result"
    }
   ],
   "source": [
    "model_size = CHOOSE_MODEL.split(\" \")[-1].lstrip(\"(\").rstrip(\")\")\n",
    "settings, params = download_and_load_gpt2(\n",
    "    model_size=model_size, models_dir=\"gpt2\"\n",
    ")\n",
    "\n",
…
